Using TensorFlow backend.
Found 8879 unique tokens.
Shape of data tensor: (35, 20000)
Shape of label tensor: (35,)
_________________________________________________________________
Layer (type)                 Output Shape              Param #   
=================================================================
embedding_1 (Embedding)      (None, 20000, 150)        3000000   
_________________________________________________________________
flatten_1 (Flatten)          (None, 3000000)           0         
_________________________________________________________________
dense_1 (Dense)              (None, 32)                96000032  
_________________________________________________________________
dense_2 (Dense)              (None, 16)                528       
_________________________________________________________________
dense_3 (Dense)              (None, 4)                 68        
_________________________________________________________________
dense_4 (Dense)              (None, 1)                 5         
=================================================================
Total params: 99,000,633
Trainable params: 99,000,633
Non-trainable params: 0
_________________________________________________________________
Train on 30 samples, validate on 5 samples
Epoch 1/10
2018-07-28 17:44:28.161931: I tensorflow/core/platform/cpu_feature_guard.cc:137] Your CPU supports instructions that this TensorFlow binary was not compiled to use: SSE4.1 SSE4.2 AVX AVX2
…
